model_dir/topic_model_dir/topic_embeddings.safetensors (safetensors, 116824 bytes, 1 tensors)

topic_embeddings f4 [38, 768]
000000 c8 f0 aa 3d f5 f7 1c 3f 71 25 0d 3d ee 3f 6d 3d
       0.08346707 0.6131585 0.034459535 0.057922296
000010 ee bb 9a bd af 35 d0 3e 9e 4f 06 bf f9 13 22 be
       -0.07555376 0.40665957 -0.52465236 -0.15827931
000020 6e dd ae 3e 2b 75 aa 3e e1 af 54 be 66 07 07 3e
       0.34153312 0.33292517 -0.20770217 0.13186416
000030 fa 71 65 bf 70 de 3d 3e 00 b7 43 3e 53 9d 89 3e
       -0.8962704 0.18541884 0.19112778 0.2687784
000040 9c fc 4c bf 05 dd 51 3f 0b 9d 4d bc a8 3c d2 3e
       -0.8007295 0.81977874 -0.012549649 0.41061902
000050 55 75 05 bf e6 2a b3 3c f1 56 0b 3f 3d 5e 37 be
       -0.5213216 0.021871042 0.5442954 -0.17907043
000060 1f 8e 9f bc d5 7e b3 3e 93 25 70 bf 85 fa 3c bf
       -0.019476948 0.35057703 -0.93807334 -0.7381976
000070 6c c8 5a bf 9b 3e 3c 3e 51 a0 e0 3e 82 20 34 3d
       -0.8546207 0.18383257 0.43872312 0.043976314
000080 0f 29 15 3e 45 c5 93 be 7b cf 93 3e 8e 51 4c 3f
       0.14566444 -0.28861442 0.28869233 0.7981194
000090 89 ef 1b 3d f0 0d 9b 3e fa 98 e5 3d 47 5a 50 3e
       0.038070235 0.3028407 0.112108186 0.20346938
0000a0 b4 17 2a bd f5 c9 f4 be 14 c3 18 bd b6 32 cc be
       -0.04152651 -0.4781033 -0.037295416 -0.3988244
0000b0 8e d1 99 3d c9 cf d8 3e 68 e1 02 3f 23 82 e5 be
       0.075106725 0.42346027 0.5112519 -0.4482585
0000c0 66 9b 0f bf 3a 1a a9 3e 2f c8 12 bf 35 4d 1c 3f
       -0.56096494 0.33027822 -0.57336706 0.6105531
0000d0 d4 6e 1c be 18 99 28 bf aa 2e 43 3f 68 4c 85 be
       -0.15276653 -0.658586 0.7624308 -0.26034856
0000e0 fd b1 c9 bd 89 bf e7 3e bc db f7 be f8 6d b0 bd
       -0.09848402 0.45263317 -0.48409832 -0.08614725
0000f0 a4 56 10 be 64 26 24 3e 7f 2b a8 be cf b9 33 3e
       -0.14095551 0.1603027 -0.32845685 0.17551349
000100 5d c6 d3 3d 39 f2 2a 3f 43 74 3f 3e fe db e9 bd
       0.10340569 0.6677585 0.18696694 -0.11418913
000110 1f 56 71 3d b5 e8 09 3f 66 e6 0b 3f f4 df 4f be
       0.058920022 0.5387071 0.54648435 -0.20300275
000120 2f fd c5 bc dc c8 9b 3e 2f 74 57 be d3 d2 cd be
       -0.024168579 0.3042668 -0.21040414 -0.4019991
000130 8e 43 85 bd 9c a7 3d 3f 6b 5f 17 bf 8e b7 ff bd
       -0.06507026 0.74083877 -0.5912997 -0.12486182
000140 4a 25 28 bf 8b dc ad 3e 83 3b 3b 3f e7 dc df 3e
       -0.656819 0.33957323 0.7313768 0.43723223
000150 b6 d5 7f 3f e9 df b9 bd aa 7b ce be df 6b ad 3e
       0.9993547 -0.090759106 -0.40328723 0.33871362
000160 29 c7 d6 3e d2 e9 14 3f a8 18 e1 be a4 7f 81 bf
       0.41948822 0.5816928 -0.43964124 -1.0117078
000170 72 98 34 3e b2 8a f0 bd 5d 2e 4c be 5d 1d b5 bd
       0.17636278 -0.11745204 -0.19939561 -0.08843491
000180 29 b7 55 be ed 70 79 3e dd b5 b3 be 30 03 66 be
       -0.20870651 0.24359484 -0.35099688 -0.22462153
000190 ea cc e2 bc fa 33 34 bf cb ff 2c 3f e5 05 fe be
       -0.027685601 -0.7039181 0.6757781 -0.49613872
0001a0 4b 13 18 3b 12 ae 7b 3d 89 e5 9f be ec f0 bd be
       0.002320486 0.061445303 -0.3122981 -0.3709787
0001b0 27 12 00 bf 0d cb 08 bf 9f 01 3d 3e 86 20 a2 bd
       -0.500277 -0.5343483 0.1845765 -0.079163596
0001c0 69 de 5f 3e 70 a2 0b bf fc fd 27 3f f8 54 68 3a
       0.21862186 -0.54544735 0.65621924 0.0008862759
0001d0 0d d4 32 3f a2 94 a2 bf 7b 60 97 3e d9 cf f6 3d
       0.69854814 -1.2701609 0.29565796 0.120513625
0001e0 63 00 7f bd a3 4e 2e bf 16 42 c6 3e 73 fc be 3d
       -0.06225623 -0.6808874 0.38722295 0.093254946
0001f0 b3 fa 99 3e bb 2e 84 be b9 5a c4 bd 3d 9e 86 3d
       0.3007408 -0.25816903 -0.095876165 0.0657315
000200 0b 3d 0d 3e 0d e0 a7 3e 60 d0 87 3d 9c 9d 26 bd
       0.13792817 0.32788125 0.06631541 -0.04067765
000210 49 71 a5 3e c4 86 d5 3d a5 84 8c 3c 91 0e bf 3d
       0.32312992 0.10426095 0.017153094 0.0932895
000220 9c 9d 50 bd 6a 2f 00 bf c7 88 cf 3e 36 dc 3f 3d
       -0.050931558 -0.5007235 0.4053404 0.04684087
000230 11 ed de bd 19 78 33 bc fc bb 13 bf 81 07 3e bf
       -0.108850606 -0.0109539265 -0.57708716 -0.742302
000240 e6 29 d7 bd 40 68 e0 bd e7 b0 9f 3e fe 78 a2 3e
       -0.10506038 -0.10957384 0.31189653 0.31732935
000250 1b 7b b3 be 70 06 20 3e 73 30 4f bf fe 31 86 3f
       -0.3505486 0.15627456 -0.809333 1.0484006
000260 03 37 e7 be e1 72 46 3e 88 e4 76 3e aa 11 53 bf
       -0.45159158 0.1937976 0.24110615 -0.8244883
000270 9e d3 fd bd 96 8d d7 3d 77 92 86 3d 27 a9 20 3f
       -0.123938784 0.10525052 0.06570905 0.62758106
000280 20 cd 9b 3f 48 cf a4 3e 83 92 f2 3c 64 b2 ac be
       1.2171974 0.32189393 0.029610878 -0.3372985
000290 45 19 4d 3f 73 cc 2f bf eb ad a0 3e 67 d1 bc 3d
       0.80116683 -0.6867134 0.3138269 0.09219628
0002a0 32 4a 3c 3e 14 fd 07 3f 35 84 bf 3e 57 d7 f0 be
       0.18387678 0.5312054 0.37405553 -0.4703929
0002b0 9b 3b 1e 3f 20 3c 9b be f9 ef a5 be 85 68 49 3f
       0.618097 -0.3031931 -0.32409647 0.7867511
0002c0 7e dd b1 3e 11 d7 81 be 6d 54 62 be 85 40 08 3e
       0.34739298 -0.25359395 -0.22102518 0.13305862
0002d0 16 d8 13 be f2 5a 8f be 1f 6c ae 3e ec 71 0c 3f
       -0.14437899 -0.27999073 0.34066865 0.5486133
0002e0 a1 e2 10 bf 9c 9c 04 3f 5d 66 39 bf c4 1d 70 3e
       -0.5659581 0.51801467 -0.7242182 0.23448855
0002f0 b2 8c 1a bf c7 e3 cc bd 40 4e 28 3f 39 ec 2d 3f
       -0.60370934 -0.100043826 0.657444 0.6793857
000300 46 1f 97 3e 3a e3 94 3d 49 bb ca 3e 60 76 7f 3f
       0.29516047 0.072699025 0.39596012 0.9979
000310 09 91 8a bf 60 31 35 bf 58 48 c1 3e c9 bf 01 3f
       -1.0825511 -0.70778465 0.37750506 0.50683266
000320 3c 81 4c bd 66 79 d9 bd fe c2 07 3f aa 0d 14 bf
       -0.049927935 -0.10618858 0.5303191 -0.5783335
000330 30 cd 59 bf 0f 24 90 be 2a d8 c8 3e 56 9c 14 be
       -0.85078716 -0.2815251 0.3922742 -0.14512762
000340 dc 33 00 3e f0 de a9 3e 47 7c f2 be a7 ee 28 bd
       0.12519783 0.331779 -0.4736044 -0.04124322
000350 e0 c1 ee 3e 0d 4e ad be 88 08 0b bf 14 cd 69 bd
       0.4663229 -0.3384861 -0.5430989 -0.057080343
000360 1a f4 ca be cd 65 0a be 54 e4 88 be 60 96 e8 bd
       -0.3963936 -0.13515396 -0.267367 -0.11356807
000370 a7 49 07 3f 37 3a 93 3c f8 a7 82 be 46 02 19 3e
       0.5284676 0.017972095 -0.25518775 0.14942273
000380 f7 ec fa 3e 49 56 8e 3d 46 83 f6 bd b5 c0 a9 3e
       0.49008915 0.06950051 -0.12036757 0.33154836
000390 4f cf 57 bd a1 5f 42 be 78 60 f7 be 55 2c ad be
       -0.05268794 -0.18981792 -0.48315787 -0.33822885
0003a0 7f b5 c2 bd 5c 17 d7 be 81 3d 8f 3e ca 30 4e 3f
       -0.09507274 -0.4201001 0.2797661 0.80543196
0003b0 c6 71 84 be de 07 b5 bd 89 52 a6 bd 5d 7f 27 3e
       -0.25868052 -0.08839391 -0.08121211 0.16357179
0003c0 bf ed e7 3e ad f8 ed bd 08 ee b6 bd d7 2a 22 be
       0.45298573 -0.11619697 -0.089321196 -0.15836655
0003d0 4e 3a 20 be 5d 48 1c 3e c3 db 74 bf 9a 08 f1 3e
       -0.15647241 0.1526198 -0.9564783 0.47076875
0003e0 29 be 16 3f 25 5f 2f 3d b7 9d f4 bd 0f b8 a0 be
       0.5888391 0.042815346 -0.11944144 -0.31390426
0003f0 55 c8 3a 3d f6 bd 4d bf 92 2e 8c 3c 88 b3 1d bf
       0.045601208 -0.8036798 0.01711205 -0.6160207
